saved_data/actor_solved.pth (torch_old, 159146 bytes, 6 tensors)

fc1.weight f4 [256, 24]
000000 76 37 05 3d 8a 40 ad bd 43 d7 13 bd 74 f1 b3 3c
       0.032523595 -0.084595755 -0.03609396 0.02196572
000010 74 57 8f be ac 81 d4 be 50 84 cb bd 05 67 fa 3d
       -0.2799641 -0.41505182 -0.09937346 0.12226681
000020 dd a3 26 3d d1 bd 1e bd 95 a6 b8 3b 7b 04 6b bc
       0.040683616 -0.03875524 0.0056350925 -0.01434433
000030 fd 51 77 3c bc aa 4e be 26 51 ae bb 5a c0 fb bb
       0.015095231 -0.20182317 -0.0053197322 -0.007682842
000040 c9 39 98 3c 62 ea 92 3d 18 48 d5 bb c6 cb 21 3e
       0.018582242 0.07173611 -0.0065088384 0.1580039
000050 83 ab 9f 3d 4f 9c c7 bd 0b 63 4c 3d 2c d4 5f 3e
       0.07796385 -0.097466104 0.049899142 0.21858281
000060 d6 d3 8c 3e 37 07 fe bd 55 0b 02 3d c7 ad 98 be
       0.27505368 -0.1240372 0.03174909 -0.29820082
000070 7d 4a ac bd 4b f0 3c bf 11 53 47 3d 91 c4 bf be
       -0.08412645 -0.7380416 0.048663203 -0.37454656
000080 34 54 18 3d 37 85 bb bd 83 0a c1 bd 85 a5 87 3e
       0.037189677 -0.09156268 -0.09425833 0.2649347
000090 5e 9b d6 3d f2 de 63 be 95 f7 a6 bd a5 87 a0 3e
       0.10478853 -0.22253016 -0.08152691 0.3135349
0000a0 0f d6 8c bc ca ac f8 bd 8a ba 76 3d 3b ef de 3d
       -0.017191915 -0.12142332 0.06023649 0.10885473
0000b0 aa 84 ca 3e 72 b5 9b bd 14 1d d0 3c 95 9d ad 3a
       0.3955434 -0.07602967 0.02540449 0.0013245816
0000c0 8b 99 a2 3c 1c 3d 6e 3d 92 40 95 3d cb 40 42 3e
       0.019848606 0.058163747 0.072877064 0.18970029
0000d0 bb c3 bf be ee b6 80 3e b8 5b 30 3d d7 d7 4c 3e
       -0.37454018 0.25139564 0.04305622 0.20004211
0000e0 e7 69 a9 3c 7e 1d f3 3d 85 cb 95 bd 0f 9e ae bb
       0.020680381 0.118708596 -0.07314209 -0.0053289006
0000f0 72 a6 42 3b 3d 76 9c bd c9 52 7b bd 54 64 62 bd
       0.002970126 -0.0763974 -0.061358247 -0.05527146
000100 e4 84 90 3d 8f 28 12 3e 54 3d dd bc ce e7 47 3e
       0.07056597 0.14273284 -0.027006783 0.1952202
000110 d1 fc cf 3e 41 06 05 bf e0 46 b4 3c fe 89 69 3e
       0.4062257 -0.5196267 0.022006452 0.22806546
000120 81 b9 97 3d f4 3c 94 bd 3d 33 86 bd 72 9f 06 3e
       0.07408429 -0.072381884 -0.06552742 0.13146761
000130 50 9a 8b 3e ac ea a7 be 16 fd ad bd 2a 13 07 3e
       0.2726617 -0.32796228 -0.08495538 0.13190904
000140 3e 9e a8 3d 2d 5a 15 be 19 aa e7 3d a4 8b df 3d
       0.08233307 -0.1458518 0.113117404 0.10915306
000150 61 a2 c3 3d a7 e4 2c bd 93 82 9e bb de a8 ee 3d
       0.09552456 -0.042210247 -0.004837343 0.116533026
000160 ea 2a 8f 3d 4b 1c 29 be 87 8a eb bc 2a 26 70 be
       0.06990607 -0.16514699 -0.028752578 -0.23452058
000170 39 cb 82 3d fa cb d5 3d 0e f2 0a 3b 3a f0 68 be
       0.06386418 0.10439296 0.0021201405 -0.22747889
000180 d8 27 ad 3c 60 a0 03 be 33 a9 5d bc de 5d d0 bc
       0.021137163 -0.12854147 -0.01352911 -0.025435384
000190 01 ec a5 3e d5 55 7d 3d db ed 82 bd 16 d0 27 bd
       0.3240662 0.061849434 -0.063930236 -0.04096993
0001a0 90 eb 1c 3c 85 3c 89 be ec 72 8b bd f8 b7 df bd
       0.009577647 -0.26803985 -0.06809029 -0.10923761
0001b0 2a c2 2c 3e ff 75 25 bd cb 17 d2 bc 20 bd 91 bd
       0.16870943 -0.040395733 -0.025646111 -0.07116151
0001c0 61 d6 80 3d 5a c2 38 be a1 8c d6 bb e2 15 ca bc
       0.062908895 -0.18042889 -0.006547526 -0.024668638
0001d0 c0 d5 58 be 38 03 14 bf 7f 3d 96 3d 6e 13 93 bd
       -0.21175289 -0.5781741 0.07335948 -0.0718144
0001e0 05 7c bd bb 0c c6 3c bd ec 55 dc bc d6 27 b0 bd
       -0.0057826065 -0.04608731 -0.02689644 -0.08601348
0001f0 cb 21 fb be d6 7a 75 be 80 21 b2 bc 48 5f 04 be
       -0.4904922 -0.2397264 -0.02174449 -0.12926972
000200 b4 27 14 3c 3f 7a ee 3d f6 ba 07 3d ba 89 ff bc
       0.009042669 0.1164441 0.033137284 -0.031193603
000210 fa 24 94 bd 4e 69 f6 3c c0 62 98 bd 9c 21 b0 3b
       -0.07233615 0.03007951 -0.0744071 0.0053751003
000220 d5 42 6d 3d d3 d5 22 3e 50 d5 92 3d 6d c6 1e bd
       0.057925064 0.1590188 0.071695924 -0.038763452
000230 ab 62 bb 3e ec f6 01 3f da 7c d6 bc 1b ce 1c bd
       0.36598715 0.507674 -0.02618258 -0.038282495
000240 b0 15 76 3d 34 a3 64 3c 93 72 c1 3c 2c 86 a4 bd
       0.060079277 0.013954926 0.023614204 -0.08033404
000250 b3 34 e2 3e e0 eb e6 3e df be d1 bc 66 b9 1e bc
       0.4418083 0.45101833 -0.02560371 -0.009687757
000260 09 f6 b1 bc a0 12 94 3c 10 3c ee 3c 59 44 17 3d
       -0.021723764 0.018075287 0.029081374 0.036930416
000270 0e d3 35 3c fb 3a 49 3e 02 2d e1 3c e4 f2 b9 3b
       0.011097683 0.19651406 0.027487282 0.005674707
000280 95 43 fa 3b 19 bc 77 bd 7c 81 66 bd f2 0e c2 39
       0.007637451 -0.06048212 -0.05627583 0.000370137
000290 ae 9a c8 be 48 69 da be 5c 4e 1d 3b 44 e0 dd 3b
       -0.3918051 -0.42658448 0.0024003005 0.0067711193
0002a0 7d 4f 8d bc 1e 1d 3e 3e 32 48 03 3d 35 47 eb 3e
       -0.017249817 0.18565795 0.032051273 0.45952764
0002b0 27 71 e5 3e 78 84 06 bf eb 20 9d bb bb fc e4 3e
       0.4481289 -0.5254588 -0.004795184 0.44724068
0002c0 b8 c0 58 bd 14 cc 08 3e 0b 71 f5 3b 44 fd 57 be
       -0.052918166 0.133591 0.0074902824 -0.21092707
0002d0 ce 2c 90 3d cd d3 04 bd a0 90 cb bb d0 b9 57 be
       0.07039796 -0.03242855 -0.006212309 -0.21066976
0002e0 5d af f7 3d ee 01 1c 3e d5 69 6c 3d 06 c7 98 be
       0.12093995 0.15235111 0.057718117 -0.29839343
0002f0 12 04 b7 be e5 dc a0 3d b6 98 b5 bc 44 84 8e be
       -0.35745293 0.07854632 -0.022167545 -0.27835286
000300 42 e3 22 3d 48 04 3b be 92 67 da 3d ac e2 64 bd
       0.03976751 -0.18263352 0.10664286 -0.055880234
000310 f9 67 27 be db 6f 80 3d c4 cb 82 3c 91 d7 c1 bd
       -0.16348256 0.06271335 0.015966304 -0.09464944
000320 0d fb 14 3e ed 32 86 bc 48 cb 92 3d a4 fc 23 be
       0.14548893 -0.016381705 0.07167679 -0.16014344
000330 99 7f 20 bd 0d 4f e6 be 86 ed a4 3d 72 4b 26 be
       -0.039184187 -0.44982186 0.080531165 -0.16239718
000340 d2 43 1f 3e 20 d7 ad bd fc 36 cb bb 3a ec d4 bd
       0.15553215 -0.084882975 -0.006201623 -0.10396619
000350 f1 f8 26 bd 34 2d f2 bf df 93 09 bd fc 7a 06 be
       -0.040764753 -1.8920045 -0.033588286 -0.13132852
000360 78 30 17 3f 9e 6c 24 be 8d 08 2a be 04 d6 75 be
       0.5905833 -0.16057059 -0.16604824 -0.24007422
000370 ca c0 80 3d e4 62 bb 3e 6b dd 33 be 42 af 58 be
       0.062867716 0.36598885 -0.17564933 -0.21160606
000380 7b 58 ee 3e ca 8e fb bd cb 6f bc 3d 1e 12 94 3e
       0.4655188 -0.12283094 0.0920101 0.28920072
000390 c9 92 1c 3e 9b b7 51 3e b1 d8 a8 3d f0 3e a0 3e
       0.15290369 0.20480196 0.082444556 0.31298018
0003a0 5e 7d d6 3e cb 76 28 be ad d4 c5 bd 0d df 07 3f
       0.41892523 -0.16451566 -0.09659705 0.53074723
0003b0 13 9e 56 3e d7 35 8b 3d 2b c7 d5 bd 3b 71 0b 3f
       0.20958738 0.067973785 -0.10438379 0.5446965
0003c0 cc 0b 8a bd 88 66 ac bb 5d d4 81 3c 89 9d 2b bc
       -0.06740531 -0.005261246 0.015848333 -0.010474571
0003d0 17 3f 33 3c b3 4d 18 bf 18 6e 4c 3c e0 98 38 3c
       0.010940335 -0.5949356 0.01247742 0.011266917
0003e0 d1 2e 1a 3d e4 28 05 bc 60 e4 ae 3d c3 ce 54 be
       0.037642304 -0.008127425 0.08539653 -0.20781998
0003f0 ae de 1c be e0 ab f3 be b6 89 fe bc 4d 81 57 be
       -0.1531932 -0.47592068 -0.031071525 -0.21045418

fc1.bias f4 [256]
000000 d3 dc 88 3c 37 89 6c be 37 95 05 3e 0c e2 3d bd
       0.01670686 -0.23099218 0.13045202 -0.046358153
000010 2e c1 60 3e cc 4a 90 3b 49 7c 2e 3d 78 fb be bc
       0.21948692 0.0044034477 0.042598996 -0.023313269
000020 49 59 46 3e e4 b1 51 be 1e 19 ec be ee 5a 0d bf
       0.19369997 -0.20478016 -0.46112913 -0.5521687
000030 82 82 22 be 80 60 8b bd a4 d1 96 bd a9 28 e6 3e
       -0.15870097 -0.06805515 -0.073642045 0.44952896
000040 87 9e 07 3e 13 5f 3b 3d c6 85 f8 be 31 0f a9 bd
       0.13244067 0.045744967 -0.4853956 -0.08254851
000050 94 0a e0 bd c0 99 9d be 00 1a 0d bf 5d 84 4c be
       -0.109395176 -0.30781364 -0.551178 -0.19972368
000060 4a 88 32 be 35 a0 3a be 4c 7d ac bd ab 04 a5 bd
       -0.17434803 -0.18225177 -0.08422336 -0.08057531
000070 f1 44 f6 be 3f 4b d8 bd 23 48 00 bf 16 8a bb be
       -0.48099473 -0.10561227 -0.5011007 -0.3662879
000080 56 7d ee 3c 00 ba 8d 3e ba 54 51 be be e7 cd be
       0.0291125 0.2768097 -0.20442477 -0.40215868
000090 5a 8f 72 be 02 9f 98 bc 8a 1c 9d 3d f0 87 a3 be
       -0.23687497 -0.018630508 0.07671459 -0.3193965
0000a0 55 25 b6 be 02 8e d9 3d a4 5e 18 be 95 d6 6e be
       -0.35575357 0.10622789 -0.14879853 -0.23324044
0000b0 26 50 73 3c a0 7e a6 be c6 f7 aa 3e dd f2 03 be
       0.014850652 -0.32518482 0.3339216 -0.12885614
0000c0 6a 90 ff bd 29 2d 4a 3e cf 51 7b be 01 c4 27 be
       -0.12478717 0.1974379 -0.24542926 -0.16383363
0000d0 05 a6 59 be 02 bc b8 be 0c 27 fe bd a9 96 af 3c
       -0.21254738 -0.3608094 -0.12409791 0.021434145
0000e0 20 1c 3e be 40 ae 54 be dd 3c 83 be de 0f 61 bd
       -0.18565416 -0.20769596 -0.25632372 -0.054946773
0000f0 bf 72 10 be a2 ad c0 3d 6b 5a 8d be 37 53 a3 be
       -0.14106272 0.09408118 -0.27608046 -0.31899425
000100 48 40 ec bb c3 19 bc bd 20 04 24 bf 98 59 1e 3e
       -0.0072098114 -0.09184601 -0.64068794 0.15463865
000110 9e c0 45 be e9 6f 51 bc 7b a8 0b be 7b 93 30 3e
       -0.19311759 -0.012783029 -0.13638489 0.1724376
000120 3a df e6 be 6f a3 35 be 20 54 01 bf a1 17 67 bc
       -0.45092183 -0.17738126 -0.5051899 -0.014104755
000130 dc c4 1c be 08 52 93 be 00 96 ee be 55 89 ad be
       -0.15309471 -0.28773522 -0.46598816 -0.3389384
000140 ca 51 fc bd 18 fd d8 bd 96 79 aa 3e 4a ba 00 3e
       -0.123202875 -0.10595149 0.33295888 0.12571064
000150 6d 74 63 3d 67 39 8e be 55 b4 3a be 7d 7b 90 bd
       0.055530954 -0.2777817 -0.18232854 -0.070548035
000160 d2 29 20 3e 63 a0 ee be a9 3e ff 3d d7 b3 34 3c
       0.15640953 -0.4660674 0.12463123 0.011029205
000170 b6 23 c4 be f8 82 3a be cf be 20 3e 10 10 cd 3e
       -0.38308495 -0.18214023 0.15697788 0.40051317
000180 d5 fc c8 be 8c 9f b0 bd 13 47 f2 3c 1f e2 a9 be
       -0.39255396 -0.08624181 0.029574906 -0.3318033
000190 59 61 37 bd 45 58 11 3e a0 0a b0 be af 01 47 3e
       -0.044770572 0.14193828 -0.34383106 0.19434236
0001a0 ba 13 b3 bd fc 2b 36 be f4 d7 75 3d d4 43 53 bc
       -0.08743997 -0.17790216 0.060020402 -0.012894589
0001b0 7f c5 16 be dc db 21 be da 18 a4 be 63 21 87 bd
       -0.14723776 -0.15806526 -0.3205021 -0.06598165
0001c0 3e ee 14 bc d2 82 c2 be 4a 5b 78 be ff df 51 3c
       -0.0090900045 -0.37990433 -0.24253574 0.0128097525
0001d0 ca 52 04 be 0a a8 71 bd 7b 8f 98 be fb 04 58 3c
       -0.12922207 -0.058998145 -0.29796967 0.013184781
0001e0 d3 b1 24 bc 64 c1 14 be 80 1f 2f 3e 7c 0c cc 3d
       -0.010052162 -0.14526898 0.1710186 0.09963319
0001f0 b6 32 31 3e ba 04 97 3e b4 21 74 3e 35 36 d1 3d
       0.17304501 0.29495794 0.23840982 0.10215417
000200 2d f6 b4 bd b9 20 91 3c 7d 46 b9 3e 83 7e 87 be
       -0.08836017 0.017715799 0.3618659 -0.26463708
000210 c9 f5 2a 3d 21 a8 de be 86 98 5d 3d d1 1a 3c be
       0.041738305 -0.43487647 0.054100536 -0.18369605
000220 60 c7 b8 be ae 1f 0f bf cf 4d 4b bd 22 43 29 3e
       -0.3608961 -0.55907714 -0.04963475 0.16529515
000230 50 f7 b5 be 90 c8 bc 3d e5 05 9a bd 6c ea e8 bd
       -0.35540247 0.09217942 -0.075206555 -0.113728374
000240 3e a5 b9 3d 2c b7 57 be d2 ff e2 3d eb ab 0a be
       0.090647206 -0.21065968 0.1108395 -0.13542144
000250 71 32 19 be e3 e6 84 be 8f bf f5 3e c5 fe 6c 3e
       -0.14960648 -0.25957403 0.4799771 0.23144062
000260 0f 1d e5 bd ba 18 3e be eb 23 9d 3e 6a 47 cd bd
       -0.11187183 -0.1856412 0.30691466 -0.10023387
000270 ff 8a a3 be f1 b6 4e bd 9c 34 75 be 42 75 89 bb
       -0.31941983 -0.050467435 -0.2394585 -0.0041948864
000280 06 11 84 3d fb 43 fc 3d bc 50 1e bf c9 e4 e4 3d
       0.064485595 0.12317654 -0.6184194 0.1117645
000290 9d 2b 9b be a4 fa 3b be 12 ff b3 3c dc 19 84 3e
       -0.30306712 -0.1835733 0.021972213 0.2580098
0002a0 eb 50 07 bd 9d 05 d8 be db 17 00 be 21 16 1a 3e
       -0.033036154 -0.42191783 -0.125091 0.15047504
0002b0 e3 d6 96 be 8c ee 78 be 0b 00 8e be a5 9e 47 be
       -0.2946082 -0.24309748 -0.27734408 -0.19494112
0002c0 1a 59 c6 bd 78 1a 18 bf 70 98 d4 be 9c 28 13 3d
       -0.096849635 -0.5941539 -0.4152255 0.0359274
0002d0 23 b2 39 3e 1a 74 1b ba 22 bb af 3e ae cf 9b be
       0.1813436 -0.0005930081 0.34322459 -0.30431885
0002e0 9f c9 2a 3d a6 4f a1 3d ab 94 f8 3e e2 f6 a5 be
       0.041696187 0.0787652 0.48550925 -0.3241492
0002f0 e7 5d a1 3e 84 5d 5d 3e f5 ec b7 be a7 e1 20 bd
       0.31516954 0.21617705 -0.3592297 -0.0392777
000300 35 19 38 be 88 12 62 be f0 9c 20 3e c8 ed 96 be
       -0.17978366 -0.22077382 0.15684867 -0.29478288
000310 b2 60 9a be 7a 40 03 be 79 35 18 bd 4c fa 05 bf
       -0.30151898 -0.12817565 -0.03716037 -0.5233505
000320 1c d0 1c 3d 03 f0 39 be 98 b0 3c be 3b 77 0d be
       0.038284406 -0.18157963 -0.1842674 -0.13815014
000330 91 9c 0b bf 50 7e 65 be 6c a8 31 be d4 fc 49 be
       -0.54535776 -0.22411466 -0.17349404 -0.19725353
000340 69 a9 34 3d 3d d5 bf be 08 b9 d6 be d4 99 5b 3e
       0.044106875 -0.37467375 -0.41938043 0.214454
000350 34 cf 66 bb 5d b5 02 bd 92 64 08 be 46 51 94 bd
       -0.0035218718 -0.031911243 -0.13319615 -0.07242064
000360 b4 a1 f0 3c 2f bb 91 be 2c cc 7d 3e 71 00 80 3d
       0.029373981 -0.28463122 0.24784917 0.06250084
000370 21 af 9d be 6a b3 e9 bc 71 61 a4 3d 80 fe 88 bb
       -0.30797675 -0.028527934 0.08026398 -0.0041807294
000380 48 ae ab bd 24 8e a5 3e 85 a0 49 3e f0 3d 05 bf
       -0.08382851 0.32335007 0.1969014 -0.52047634
000390 c7 1f 97 be ab 6a a8 bd 5a 28 2f be 18 fa e4 3c
       -0.29516432 -0.0822347 -0.17105237 0.027951285
0003a0 f9 4d 18 bb 65 40 61 3d d4 71 1c 3d 8b 0f 13 be
       -0.0023239835 0.054993052 0.038194492 -0.14361398
0003b0 f5 30 68 3e af 25 b2 be 41 9f bd be 91 ac 09 be
       0.22674926 -0.34794375 -0.37035564 -0.13444735
0003c0 04 ec 35 bd 3d 75 69 be de 3f 3d be 46 e4 03 bf
       -0.044414535 -0.22798629 -0.18481395 -0.5152019
0003d0 38 96 65 3d a6 dd 18 3e aa 97 c8 3c c4 6e ee bd
       0.056051463 0.14928302 0.024486382 -0.116422206
0003e0 3d 92 85 3c 53 1f b8 3c cc ad fe bd 93 94 09 be
       0.016305083 0.022475874 -0.12435493 -0.13435583
0003f0 89 d8 5d 3d ce f7 0f bf ca d6 5a bd 3e 15 ca be
       0.054161582 -0.56237495 -0.053427495 -0.39469332

fc2.weight f4 [128, 256]
000000 f9 22 4a bc 8e 3d 3c 3d 9f 49 84 be 4e fa a6 be
       -0.01233744 0.04595714 -0.25837418 -0.32612842
000010 73 36 ae 3b 84 c7 77 3d c5 5b 1f 3e f4 0c 84 3e
       0.0053165494 0.060493007 0.15562351 0.25791132
000020 4d a6 2c be ab 7a 7a be fb 86 f5 bc a4 4c df be
       -0.16860314 -0.24460857 -0.02997159 -0.4361316
000030 c9 10 30 3e 9b 74 6b be c0 09 77 bd b9 ae 19 3b
       0.17193903 -0.229937 -0.060312033 0.002345009
000040 3c 97 68 bd 15 63 30 3e 44 8a dc be 96 28 cf be
       -0.056784853 0.17225297 -0.43074238 -0.40460652
000050 0d 29 d3 3d 15 4e 21 bd c2 3f 61 3e 3b 2e 1a bd
       0.10310564 -0.039381105 0.21996978 -0.037641745
000060 a5 01 ad 3e 6b f6 90 bd ce ec 1a bf bc cf a0 bd
       0.33790317 -0.070782505 -0.60517585 -0.07852122
000070 c3 6f 31 bf 32 da f5 bc 22 f2 74 bc 9a cf 34 3e
       -0.6931116 -0.03001127 -0.014950307 0.17657319
000080 b3 1c f3 bb d1 b5 f9 3d a4 fc 50 3e 73 9f f0 3e
       -0.0074191927 0.12192882 0.20408875 0.4699665
000090 04 e0 66 3e bf 9c 35 3e 22 46 a1 3c 67 7b 64 be
       0.22546393 0.17735575 0.019686762 -0.223127
0000a0 ea 59 11 bf 72 45 85 ba 5a 6a 9d be 40 c8 cb bc
       -0.5677782 -0.0010167791 -0.30745202 -0.02487576
0000b0 c8 57 ef be dc 0f d5 bd 9c 1e 13 bf 6c 0f 3a 3d
       -0.4674666 -0.104034156 -0.5746858 0.045424864
0000c0 4c ed 35 3e 7a a9 7a be cb 3d 8a 3e 49 d4 88 3d
       0.17766303 -0.24478713 0.2700027 0.06681115
0000d0 4a 8b 92 3d 3a 0f 85 3e e9 41 1e be 43 3d 54 be
       0.071554735 0.2598818 -0.1545483 -0.20726494
0000e0 dc 9e 6c be 52 c2 aa bc cd 7d 55 bc c1 fd 02 3b
       -0.23107475 -0.020844612 -0.0130304815 0.0019987675
0000f0 f1 32 14 bd e7 8f 64 3e d3 3d d2 be fe e9 f1 bd
       -0.036181394 0.2232052 -0.41062793 -0.118122086
000100 f1 aa 63 3c e1 f2 2d 3e 92 a7 37 3e 84 da d8 bd
       0.013895736 0.16987182 0.17935017 -0.105885535
000110 9b 0f 0d 3e d9 3b 6e bd 68 b9 85 bd 15 31 8e 3e
       0.13775484 -0.058162544 -0.06529504 0.27771822
000120 64 fa 9a bd 6a 15 1c 3e a0 c8 07 bd 92 56 4a 3f
       -0.075672895 0.15242544 -0.033150315 0.79038346
000130 a1 7d 8e be aa 9e 9c 3e 6c d4 45 bd 4a 86 da be
       -0.27830222 0.305898 -0.048298284 -0.4268058
000140 40 10 0d bd 4a bd 4a 3e 61 86 ef be d1 22 18 3d
       -0.034439325 0.1979877 -0.4678221 0.03714258
000150 52 bd 35 3b 5b b4 01 3e 09 2e f6 3b a0 3d a8 bd
       0.0027731252 0.12666456 0.007512812 -0.08214879
000160 28 50 94 3b e5 44 56 bd 97 2b c6 bd 23 ab a8 3c
       0.004526157 -0.052311797 -0.09676283 0.020589417
000170 bc 86 ac bd 4c f6 06 be b4 51 13 bd c1 61 19 bf
       -0.08424136 -0.13179892 -0.03596659 -0.59914786
000180 0d 3f 9f 3e 48 06 01 3e 0b 11 c1 be 6f 57 a6 be
       0.3110279 0.12600052 -0.37708315 -0.32488582
000190 d6 4f aa bc 0d 48 84 be c4 7e a0 3d 1f 13 8a 3d
       -0.020790022 -0.2583622 0.078366786 0.06741928
0001a0 a9 b9 62 3d 3a 70 39 be fe 22 0e 3d 28 68 50 3d
       0.05535284 -0.18109217 0.03470134 0.05088058
0001b0 02 32 66 3d 68 b8 16 3e 1d f8 ca bd 02 ff 5e be
       0.056200035 0.14718783 -0.09910605 -0.21776965
0001c0 46 9c 31 bd 5e 57 ac be aa e8 2b 3e 8d 7e 32 3d
       -0.043361925 -0.33660406 0.16787973 0.04357772
0001d0 99 43 1b 3e 12 79 b8 bd a3 1b 2b 3e 9d 55 bc bd
       0.15162505 -0.09007467 0.16709761 -0.09196017
0001e0 1f 5c bf be 49 17 8b be e3 86 10 3e a9 bc 8b 3d
       -0.3737497 -0.27166203 0.14113955 0.068230934
0001f0 c2 4a e6 be 7c 7b 13 bd fa 38 9f bc 43 c9 c3 3e
       -0.4497891 -0.036006436 -0.019436348 0.38239488
000200 45 6c 56 3e 64 ea 90 3e ed e7 2b bf f0 b7 a7 3c
       0.20939739 0.28303826 -0.67150766 0.02047345
000210 6e 6a eb 3c 58 13 a0 be c9 6d 32 3d c8 f4 94 be
       0.028737273 -0.31264758 0.04356173 -0.29093003
000220 f2 9f 0d 3e 20 e2 9d 3c 7d fd d3 3d 09 e2 b3 3b
       0.13830546 0.019272864 0.103510834 0.005489592
000230 04 8c 42 be 58 b0 69 be 66 94 c8 3e 09 30 47 bd
       -0.18998724 -0.22821176 0.3917572 -0.048629794
000240 d9 40 b0 3e fc 84 30 3c 0a fb 72 bd 83 b5 19 3d
       0.34424475 0.010773893 -0.05932144 0.03752662
000250 f4 23 12 be 6e 14 a7 3d 8a dd f0 3d c8 13 09 3e
       -0.14271528 0.081581935 0.11761005 0.13386452
000260 39 b7 d3 3e 02 c6 57 3e 8c 86 b3 3d 23 7e 4e be
       0.41350725 0.21071628 0.08765897 -0.20165305
000270 b7 c0 03 3e ab 06 84 be ab f4 57 be 09 3e 06 3d
       0.12866484 -0.25786337 -0.21089427 0.032774005
000280 9d 31 05 be f5 96 ba 3c 73 2b 3b bd 38 c5 5a bc
       -0.13007207 0.02277706 -0.045695733 -0.013352685
000290 3c 09 a7 be 46 1a a3 3c d6 34 76 3d 88 70 3f be
       -0.32624233 0.01990999 0.060108982 -0.18695271
0002a0 b7 37 c3 bd a4 43 38 bd 1f 5d 92 bb 45 60 13 bd
       -0.09532111 -0.044986382 -0.0044666673 -0.03598048
0002b0 10 28 9e 3e ba 56 b0 be 2b 74 ed 3b b5 f2 9f bd
       0.3088994 -0.34441167 0.0072465143 -0.078099646
0002c0 7c fc e7 3d fd a7 55 bd ba 76 b0 3e 33 c8 3c 3e
       0.113274544 -0.05216216 0.3446558 0.18435745
0002d0 b5 48 f0 3d 30 6c c6 3d 37 d3 4d bf d2 38 50 bd
       0.11732618 0.09688604 -0.80400413 -0.050835438
0002e0 2c d6 79 bb 29 2b 32 3e df aa 01 3e bc 48 04 3e
       -0.003812204 0.17399277 0.12662838 0.12918371
0002f0 ae ca ea bd 12 1d 7a 3d 01 f4 be 3d 6c f2 63 3e
       -0.11464439 0.06106288 0.09323884 0.22260445
000300 34 11 20 be 79 c1 45 be 5c 4e 84 be 9b 6a 22 be
       -0.15631562 -0.19312085 -0.25841033 -0.1586098
000310 0c 4a c1 bc 0c 1c ec bd d1 08 3a 3d bd 18 ad be
       -0.023594879 -0.11528787 0.045418564 -0.33807936
000320 9d 48 35 be d9 da c3 be 2e da 8e 3e a4 86 e9 3d
       -0.17703481 -0.38252905 0.27900833 0.11402634
000330 82 d5 5a be c4 bf ff bd c7 06 0c 3e e4 01 a3 bd
       -0.2137051 -0.12487748 0.1367446 -0.07959345
000340 2d a6 c6 3d 82 95 29 be e1 96 af 3e 42 55 95 be
       0.09699664 -0.16560939 0.342948 -0.2916661
000350 f7 e4 23 3e 78 fd 0d be 9a 02 95 3d 6e 32 8f bd
       0.16005312 -0.13866222 0.07275887 -0.069920406
000360 76 c8 0c 3d b8 64 c5 3d 69 ac 2d 3e dd ec 51 3d
       0.034370862 0.09638351 0.169603 0.05125128
000370 e3 d9 32 3c aa 14 81 bd 0e 2a cc 3e d5 32 84 3e
       0.010916206 -0.063027695 0.39875835 0.25820032
000380 ae 5b 3a 3e 8b 53 e6 be ae f2 80 be b9 59 85 bc
       0.18199036 -0.44985613 -0.2518515 -0.016278135
000390 4b 3e 00 3d 93 03 64 be df 59 3e bd 7c 4c 93 3c
       0.031309407 -0.22266988 -0.046472427 0.017980807
0003a0 ca 89 96 be 99 06 99 be 97 b6 41 be ba 4d 3d bd
       -0.29402 -0.29887846 -0.18917309 -0.046216704
0003b0 03 61 ad 3c dc 5a e4 3d 9b 07 ac bc 1e 6f cd 39
       0.021164423 0.111501426 -0.02099972 0.00039183436
0003c0 b7 fd 85 3d d3 5f 3a 3e b7 d6 09 be b0 f6 e6 bd
       0.06542533 0.18200617 -0.13460813 -0.11277521
0003d0 23 d5 f3 bc 5d 49 8d bd 75 fd 4b be f0 8c 26 3c
       -0.029764717 -0.068987586 -0.19920905 0.010165438
0003e0 c5 8c fa 3e 7e 61 15 be 93 a6 2d 3e 8d c4 d0 3d
       0.48935524 -0.14587972 0.16958074 0.10193739
0003f0 41 db 0e 3e fc bb b8 bd 79 0e a7 be 63 e8 11 3e
       0.13950826 -0.0902023 -0.3262823 0.14248805

fc2.bias f4 [128]
000000 59 5d 6b 3d fc 19 2e 3e f4 45 91 3d ac 2e 43 3e
       0.05746207 0.170021 0.070934206 0.19060773
000010 93 76 67 bd 19 b8 63 bd 27 23 89 3e 9f 9e c2 3d
       -0.056509566 -0.05559549 0.26784632 0.09502911
000020 70 fa 00 be 45 d4 30 3e 05 b9 a1 3e 40 99 8e bd
       -0.12595534 0.17268474 0.3158647 -0.06962824
000030 75 f9 b0 3d 8c cd 30 be 1f b3 81 3c 14 8f c2 3d
       0.0864133 -0.1726591 0.015832482 0.09499946
000040 7f 83 7f bc 7f 7a 04 bf 06 84 ec bd ce 6a 1d bc
       -0.015595316 -0.51749414 -0.11548619 -0.009607984
000050 01 eb b4 3d f2 29 92 bd 23 2b 12 3e 4c 29 64 bc
       0.08833886 -0.07136907 0.14274268 -0.013925862
000060 da c6 98 bd 51 32 62 be 07 e6 16 bc b7 7b 06 bc
       -0.07459803 -0.22089507 -0.009210116 -0.008208207
000070 a0 3a 8a 3d 78 2f 2d 3d 68 be d8 bd f8 4f 71 bc
       0.06749463 0.042281598 -0.10583192 -0.014728539
000080 b6 e7 54 be f4 08 4f 3d 47 d8 67 be 0c 02 5f be
       -0.20791516 0.050545648 -0.22641097 -0.21778125
000090 8e 19 41 3b 77 22 1c 3c 3a 65 28 be 98 62 48 3d
       0.0029464695 0.009529701 -0.16444865 0.04892215
0000a0 0e 24 ac 3d bc fa 06 3e 49 cd 28 be cd 17 d6 3c
       0.084053144 0.13181585 -0.1648456 0.026134396
0000b0 e5 2b ab 3d 5b a9 38 3c 1b 6f 1f be 45 40 65 3d
       0.083579816 0.011270846 -0.15569727 0.055969495
0000c0 e6 50 d6 3d a8 6c b8 bc 74 e5 50 be a5 95 52 bc
       0.10464649 -0.022512749 -0.2040003 -0.012853061
0000d0 f7 b6 64 3d fa f6 eb bc 79 fb 77 be 60 8f cb be
       0.05583855 -0.028804291 -0.24217023 -0.39757824
0000e0 c6 2c 69 3d 5c a6 74 be 97 e7 ce 3c 42 a3 6c 3e
       0.056927465 -0.23891586 0.025256915 0.23109153
0000f0 be c6 50 3c 79 70 bc be 5c eb 3f 3d 61 c1 45 be
       0.012742696 -0.3680456 0.046855316 -0.1931205
000100 94 1c 00 be 24 d3 66 be e4 55 43 3c 01 26 8d be
       -0.12510902 -0.22541481 0.011922333 -0.27568057
000110 61 54 21 be 16 cd 28 3c e0 21 9a 3d 64 be 37 be
       -0.15754844 0.010302803 0.075259924 -0.17943722
000120 4c d5 89 bd 2c 97 35 be 07 02 2f be 3b bc 4f bd
       -0.06730136 -0.17733449 -0.17090617 -0.05071662
000130 95 35 e2 3d 95 08 5d bd a2 06 a2 be 02 32 e8 bc
       0.11045376 -0.053963263 -0.31645685 -0.028344158
000140 2e 76 32 3e 29 a4 6b bd c7 91 d5 bd 17 9d e1 3d
       0.17427894 -0.057529602 -0.104281954 0.11016291
000150 16 dc 03 bd 34 28 85 3d d1 1c 1c bd f6 6e 3a be
       -0.032192312 0.06501809 -0.03811342 -0.1820639
000160 42 8a 07 be 7c 4d 7a 3d d2 ac 72 bd b5 14 46 be
       -0.13236335 0.06110905 -0.059246846 -0.19343837
000170 45 b3 a1 3d 15 da 23 be fc c6 36 bc 87 4e fe 3d
       0.07895521 -0.1600116 -0.01115584 0.12417322
000180 76 bc 91 be dd e5 e9 3c 69 ed b8 3d bb 76 55 bd
       -0.28464097 0.02855199 0.090296574 -0.052115183
000190 f3 1e 78 3d a4 30 04 3e b9 3a 5d bd db ed 59 bd
       0.06057639 0.1290918 -0.05401108 -0.053205352
0001a0 a5 cc 4f bd ac 76 b7 3d af 89 0e bf 85 25 2f bd
       -0.050732274 0.08958182 -0.5567884 -0.04276039
0001b0 09 ca f2 bd a4 65 4d be c6 f8 e4 be 78 6d 95 3c
       -0.118549414 -0.20058304 -0.4472105 0.018240675
0001c0 d6 56 a4 bc cd 3b c5 3d bd 74 48 3e 17 8e a7 be
       -0.020060938 0.09630547 0.19575782 -0.32725593
0001d0 27 d0 c0 3d 79 e3 a6 3d db 28 e4 3d 14 0a 59 3d
       0.09414702 0.08148856 0.11140605 0.052988127
0001e0 db c1 b4 3d f6 84 ee 3c 7b a2 ed 3c c7 67 b0 bc
       0.088260375 0.029116135 0.02900814 -0.02153386
0001f0 ed e0 5b bd 48 ac 18 be 72 95 19 3e 83 e7 1b bc
       -0.053681303 -0.1490947 0.14998415 -0.009515646

fc3.weight f4 [2, 128]
000000 74 df ce bd e0 b9 97 bd 19 55 2e 3d 03 07 e7 3d
       -0.10101214 -0.074085 0.042561624 0.11280634
000010 8e fd 91 bc 93 8c 0f c0 c4 d7 0c 3d 00 f8 79 3d
       -0.0178211 -2.242955 0.034385458 0.061027527
000020 57 1d 8c 3d 49 e7 5f bd 24 cb 07 bd 1a 97 34 3e
       0.06841534 -0.05466393 -0.033152714 0.17635766
000030 d8 1f cb 3d 31 46 24 3d a0 7e 0d bd b5 2b 36 c0
       0.09918183 0.040106002 -0.034544587 -2.8464177
000040 4f 7a 3c bf 4f 83 94 bc e7 d9 a8 bf ae 1e da 3c
       -0.7362413 -0.018129019 -1.3191499 0.026625957
000050 53 5e 0a bc 81 2a 1f be f1 db d4 3e 4d a4 9d be
       -0.00844534 -0.15543558 0.41574052 -0.30789414
000060 59 c8 f6 3d 63 14 90 bf c1 10 6c 3d 5e eb 3c bc
       0.12049932 -1.1256222 0.057633165 -0.011530725
000070 ff 83 41 3e 22 0a d8 3d 57 5c f2 bd 43 60 b8 bd
       0.18898009 0.10548808 -0.11834019 -0.090027355
000080 49 d5 e0 be a4 3f 61 3b 2a 26 7f c0 3f b2 de c0
       -0.43912724 0.0034370208 -3.9867043 -6.9592586
000090 e9 65 65 bd ef e1 4a bc df 8a 7a bf 69 ec a4 3c
       -0.056005392 -0.012382968 -0.9786815 0.02013226
0000a0 ad 1e a9 bc 45 ea 26 be f0 b2 67 c0 5c 85 98 bd
       -0.02064451 -0.16300304 -3.6202965 -0.07447311
0000b0 ab 1c dd be b6 0a 63 be 61 99 6c 3e 4a be 35 c0
       -0.43185934 -0.22172055 0.23105384 -2.8397393
0000c0 89 ef 62 3d 5e 80 82 3c 0c 55 46 be 83 98 44 3d
       0.05540422 0.01593035 -0.1936838 0.04799701
0000d0 a9 60 66 c0 70 1f d3 bc 0f 6b 6a be d1 b7 91 bd
       -3.5996497 -0.025771827 -0.22892402 -0.07115138
0000e0 f9 81 fe 3e 73 cc 56 be a8 d8 8f bd 7d f3 a0 3d
       0.49708536 -0.20976429 -0.07023746 0.07858942
0000f0 5a 4e 85 bd 5a 8e 4c c0 09 b8 e5 3b 04 3b 70 bc
       -0.06509085 -3.1961884 0.007010464 -0.014662508
000100 3b 5e 6c 3c 01 c2 5f 3d f6 7a 77 3d c8 d9 8f bf
       0.014426763 0.054628376 0.06042 -1.1238337
000110 30 6c 45 c0 ee 92 26 3d 77 2b d8 bd 63 fd 33 3b
       -3.0847282 0.040667467 -0.10555165 0.0027464263
000120 21 9c 04 c0 eb 64 a7 3c d5 08 ce bc 90 ec 34 bf
       -2.0720294 0.020433864 -0.025150696 -0.70673466
000130 1a b4 95 bd 16 40 df bd 03 19 ed bf fa bc 97 3f
       -0.07309742 -0.10900895 -1.8523258 1.1854546
000140 a0 d8 1a be eb 04 ba bd 7d 56 91 3f db 88 14 3d
       -0.15121698 -0.09082969 1.1354519 0.036263328
000150 64 fb a3 bd 6d 3b 5a 3e f8 28 2b 3d ec 33 ea bf
       -0.08006933 0.21311732 0.041787118 -1.8297095
000160 57 ff 83 bd d4 97 c9 bc b3 03 c2 3d 64 8a 7d 3f
       -0.064451866 -0.02460853 0.09473362 0.9903929
000170 1c eb f3 bc b3 ac 16 be b8 f2 f8 3c ab 1b 48 3d
       -0.029775195 -0.14714317 0.030389175 0.04885451
000180 da f3 db 3e b9 0a 02 3d 0e b6 1d 3d 27 35 8a 3d
       0.4295948 0.031748507 0.0385037 0.06748419
000190 34 62 47 bd 9e c8 7c be e4 ae 33 bf 40 74 16 bd
       -0.04867764 -0.24685904 -0.70188737 -0.03673196
0001a0 2f b7 e7 be b3 18 4e be 04 0d 45 3d 6d b4 8c 3e
       -0.45256945 -0.2012661 0.048108116 0.27481404
0001b0 fb b2 04 bf 3d 41 6b 3d 15 2a ec bf 8c a4 3b c0
       -0.518356 0.057435263 -1.8450342 -2.9319181
0001c0 33 0c 81 3f fa 81 a1 bd 0a 27 ae 3d fe 88 a0 3c
       1.0081848 -0.07886119 0.0850354 0.019596573
0001d0 83 af 75 be 1b 82 b3 3c 9f 48 87 3d 98 41 2d bd
       -0.23992734 0.021912625 0.06605648 -0.042298883
0001e0 ac 17 a0 bd 1e d5 db ba 72 8e 72 bd fb f1 fe 3b
       -0.07817015 -0.0016771888 -0.059217878 0.007780311
0001f0 40 80 2a be 8f 36 3d 3e dc 28 95 3e 8b ea a9 bd
       -0.16650486 0.18477844 0.29132736 -0.08296689
000200 4a 1e 17 be 4f 1e 11 bf f5 c8 e2 be 8b ff 6d bd
       -0.14757648 -0.5668687 -0.44293943 -0.058105033
000210 69 94 89 3e 7d 64 f8 3b d7 68 5c be e0 bf d0 bc
       0.2687104 0.0075803385 -0.21524368 -0.025482118
000220 f0 d3 a6 3d c8 50 15 bd 83 56 67 bf ee a0 e5 3d
       0.081458926 -0.036453992 -0.9036638 0.112123355
000230 c3 f3 1e be 23 dd 68 3e 05 06 ea 3e fe bd 63 3f
       -0.15522675 0.22740607 0.45707718 0.8896178
000240 15 72 14 3e ca e3 2d 3f ca fe 14 3e 91 14 7a 3e
       0.14496644 0.67925704 0.1455032 0.24421908
000250 12 37 f0 be f4 b8 61 3a 03 1a eb be 28 4d 10 3e
       -0.46917015 0.0008610629 -0.45918283 0.14091933
000260 69 8e 13 3e 84 92 4d 3d 44 50 0f ba 26 20 df be
       0.14409794 0.050188556 -0.00054669776 -0.43579215
000270 a5 5c 6b be f8 0e 09 bf 7a b8 f3 3e 87 44 26 bd
       -0.2298456 -0.53538465 0.47601682 -0.040592697
000280 fb 12 83 bd 7b a0 bf be 84 0b 03 be b1 59 1a 3e
       -0.064001046 -0.37427124 -0.12797362 0.15073277
000290 8d 0d fb be 1d 0c b3 be 13 c9 02 bf 5c e0 ed be
       -0.49033776 -0.3497018 -0.51088065 -0.46460235
0002a0 c9 dd b0 be 6a 8b fe bd f9 ee 43 be 1a 10 7d 3e
       -0.3454421 -0.12428935 -0.1913413 0.24713174
0002b0 d7 01 55 3e 06 eb 0c b9 8c 4b 8d 3e a7 3f 06 be
       0.20801483 -0.00013438993 0.275967 -0.13110219
0002c0 98 41 68 bb 67 2b fc be 48 52 cf bd 16 7d 91 be
       -0.0035439488 -0.49251863 -0.10123116 -0.28415745
0002d0 c1 1d 4c 3e 6f f4 a2 be 80 9f 25 be 0d 75 67 3e
       0.19933225 -0.31827113 -0.16174126 0.22603245
0002e0 6c 0c ed 3c b7 67 a6 bf 41 19 12 3e fb d1 99 bc
       0.028936587 -1.3000401 0.14267446 -0.018776884
0002f0 50 41 44 bd 16 67 c8 bb 32 76 61 3f a8 ff c4 3e
       -0.04791385 -0.0061158044 0.88070977 0.384763
000300 8d 25 3a 3f e8 89 47 3f 2f b0 19 3e d0 3f 03 3e
       0.7271355 0.77944803 0.15008615 0.12817311
000310 ed e3 8b be db fe b2 3e ce e9 1f 3c 02 a3 37 3f
       -0.2732233 0.34960064 0.009760333 0.71733105
000320 e2 ca 81 be 17 20 73 be 35 5b 97 3e 01 f7 3b bf
       -0.253501 -0.2374271 0.29561773 -0.73423773
000330 ae ca 1d bf f1 cf 40 bd 58 79 c2 be af c3 0b 3e
       -0.6163739 -0.04707331 -0.37983203 0.13648866
000340 13 d5 7a be ea 2e d1 bd 4d 21 36 3e 35 c5 a6 3d
       -0.24495344 -0.10214026 0.1778614 0.08143083
000350 04 9c 36 bf 3d 8a 5b be ee b6 1d be 0e 71 dc 3d
       -0.7133181 -0.21439452 -0.15401813 0.10763751
000360 0e ca 1d bf bd 92 18 be d5 c1 bb 3d 68 6c 3e bd
       -0.61636436 -0.14899726 0.0916783 -0.046490103
000370 78 15 b6 be ce 0d 7d bf f6 bb f1 3d 3b 50 19 3d
       -0.35563254 -0.9884919 0.11803429 0.03743003
000380 45 a5 d6 3d 75 4b 26 be f0 ab 13 3f 9e e8 d4 bd
       0.104807414 -0.16239722 0.5768423 -0.10395931
000390 3f 5a bb be c8 85 26 be 98 4e 0f 3c e6 b5 86 bf
       -0.3659229 -0.16261971 0.008746766 -1.0524261
0003a0 49 f7 3f 3e af 20 cd bd fb c1 50 bf 1b a5 00 be
       0.18746676 -0.100159995 -0.8154599 -0.12562983
0003b0 60 fc 8a 3e 4b 3d de 3e 31 32 81 bc 0e e4 98 bd
       0.27145672 0.43406138 -0.015771003 -0.07465373
0003c0 c7 e2 9c 3e f6 f8 47 3c 89 86 51 bd 7d 07 27 bf
       0.30641767 0.012205353 -0.051153693 -0.652458
0003d0 f3 36 a8 bf 41 7d af 3e a8 f2 7a bf 0e 2d d5 bd
       -1.3141769 0.3427525 -0.98026514 -0.10408984
0003e0 cc 9d c7 be 1a 15 a0 3e fd 74 0b 3e ab 38 bb be
       -0.38987577 0.312661 0.13618846 -0.36566672
0003f0 2d f1 b0 3d ab 2b 29 be 56 1a af 3d 84 16 72 3d
       0.08639751 -0.16520564 0.08549945 0.059103504

fc3.bias f4 [2]
000000 11 69 61 3d e7 db cd bd
       0.05503184 -0.10051709
