saved_data/critic_solved.pth (torch_old, 159653 bytes, 5 tensors)

fc1.weight f4 [256, 24]
00000000: 941f d2bd ded6 dd3d 180e 2a3c 0b3a 94bc
00000010: b5c8 a73d 987d 263c 63cd 33bd 89a7 00be
00000020: 95ac e5bc 5a1e d73d 3ea1 e93c b1a6 b33c
00000030: 5c87 433d 3234 93be 7e52 b2bc af8a 9bbd
00000040: 6faa 013d d7c6 4e3e 4499 a53c ae20 703c
00000050: c2ce 47be af02 02be 8539 17bd b091 0dbd
00000060: 0b62 463d 0fb4 24bd 0c0e 41bc 8919 c63b
00000070: f563 14be 7745 12bf aee0 2f3c b7de 913b
00000080: 4d58 6abc 2800 32bd 3457 23bb 92b7 07bd
00000090: 3af7 2cbe b122 413e df5c aa3b 8240 d13c
000000a0: 0139 013a e87e 8d3d fb63 63bc 9e9f 2b3d
000000b0: 2e3c 9a3e 4878 053f f712 623c 29a4 a53b
000000c0: 73ca c8bb c5cb 003e 1316 9fba ab23 4b3b
000000d0: 221c 5a3d f4fc 8f3e a583 c43b aebc 2dbc
000000e0: 6352 933c 4d01 923e 75ba aabb 62f1 8d3d
000000f0: 2e58 ed3c 2aca 813e 4381 0d3c 394c 2dbc
00000100: 5f23 77bd c48d ad3e f8d5 a7bc ad1c af3d
00000110: c175 cabd e052 7fbf 2bd6 263b 9277 a9bb
00000120: b456 a13b 9f4c d5bd 6aea c53c e6c6 be3c
00000130: 92fb cf3c f966 9a3d 7c28 a53c 9ea7 033d
00000140: fc09 b7bc c3ef b7bd 23f7 09bc b777 fb3b
00000150: aed7 0c3e b3cb a33d 3f3e d3bc 487d a1bc
00000160: 1696 c63d c6ae efbd 577b af3c 474a 903d
00000170: 411e 22be c223 0b3b 9965 1d3c 5142 793d
00000180: d189 513e db00 15be 9c29 70bc 4a13 263d
00000190: f9f6 083e 7c10 2bbd 69eb c43c 38cb fd3c
000001a0: 1ec0 0e3e b2e4 67be 3a38 64ba 287b fb3c
000001b0: 72c5 91b9 62ff 9e3e 5c98 213d f3b1 bb3c
000001c0: f44c bc3b f609 d7be 8de0 413d f6c4 a13b
000001d0: 6e1e 22be 65eb 5b3e 8542 26bd 9a3c cd3a
000001e0: eb45 4fbd 5781 5d3e 33eb 733a 17d0 0b3d
000001f0: 185b 273e 3cd9 4abf 72ac 973b 669f a8bd
00000200: 6122 55bd c4cc a73d e658 f13c 3746 8d3c
00000210: c0e4 d9bc bb07 193e 1613 4dbc 2674 4b3a
00000220: 27bf ccbd 9aba 863d a7fa 8cbc 142c dc3c
00000230: 8b6d b2bd 31b1 1ebe 1f96 693c dc71 283d
00000240: cca1 153d 6cc2 92bd fcc9 7ebc 5335 b0bb
00000250: 242f 723e ff24 94be 8b27 d3bb ef7a 49bc
00000260: 5081 10bd 5842 1abe 9284 2cbd 4f96 85bc
00000270: cb4a 8f3c 41e5 4fbc 9adb af3b 35ce 6ebb
00000280: 28eb 0a3d f625 2e3d e8ae 7ebd 2c4f 33bd
00000290: 088a 4bbd afb2 823e 0f2c 88bd a8f9 24bd
000002a0: e816 7ebc 8373 8cbd bc4b 03bd 168a b13c
000002b0: 4c97 423b 6225 5abe 2e93 0f3d 90a9 91bc
000002c0: fa6a 59bd f227 bdbd 69cc d8bc e922 953b
000002d0: 5f49 933e 6751 68be a1c8 923c 069b 7fbd
000002e0: fa38 ee3b dd02 b0bd 574e 9ebc 190c 1e3d
000002f0: 671a 0cbe 7564 f53e f617 543c d249 d13c
00000300: 65f0 863b 0c58 88bc f8b9 71bc 0aa5 eabc
00000310: 1ae5 d4be c9ae dcbd 9009 793c 4627 c13c
00000320: ead1 05b9 c5f5 ebba b1c5 2bbd 1ccc 2f3d
00000330: 592e cbbd 5441 c53d 4946 2a3d 1e68 5fbd
00000340: 1018 80bb c606 bf3c b558 c73c 449e 5fbd
00000350: dca6 133f 174a b43d 353f c0bc 1473 473d
00000360: 2d03 5ebd c6c4 213e 1c3e 38bd 6e86 0c3e
00000370: b909 fc3d f73d 86be dcd7 973a 2684 4a3e
00000380: 540a b23c fbc2 bb3d bc42 32bd 857b 84bd
00000390: 7488 d0bc d39a 88be 2b79 babd eda0 873c
000003a0: 7bfc 213d 0896 1d3e e1f7 55bd 1908 d43d
000003b0: ecbf 08be 8ea0 98bd 8b8d f23c f7f6 8f3d
000003c0: 7612 c33c 5392 9d3e 668e 863d eaa2 853d
000003d0: 3d7c b3bc e171 d1bc 35bc d7bc e0ac 333d
000003e0: 11ed 97bd 1055 8d3e 2f2d 36bd 2255 dfbc
000003f0: 1a7f a5bd cdc0 88be 17c0 2ebd 4466 95bd
-0.10259929 0.10831998 0.010379337 -0.018094083 0.08192579 0.01016178 -0.043897044 -0.1256391
-0.028036395 0.10503836 0.02851927 0.02193007 0.04773651 -0.2875076 -0.021767851 -0.07594811
0.03165668 0.20193039 0.020214684 0.014656229 -0.19512466 -0.12696336 -0.03692009 -0.034562767
0.048433345 -0.04021078 -0.011783134 0.0060455245 -0.14491256 -0.57137245 0.01073472 0.0044515985
-0.014303279 -0.04345718 -0.0024923803 -0.03313405 -0.16891184 0.1886089 0.0051990594 0.025543455
0.0004929454 0.06908971 -0.013878818 0.04190027 0.30124038 0.5213666 0.013798467 0.00505497
-0.0061276495 0.12577732 -0.0012137316 0.0030996602 0.053249486 0.28122675 0.0059971386 -0.010604067
0.017983621 0.28516617 -0.0052102157 0.06930806 0.028972711 0.2534955 0.008636775 -0.010577255
-0.060336467 0.3389722 -0.02048777 0.08550391 -0.09885741 -0.9973583 0.0025457244 -0.0051717246
0.004923666 -0.10415005 0.024159629 0.023288202 0.025388513 0.07539172 0.020160906 0.032142274
-0.022343628 -0.08981278 -0.008420738 0.007674183 0.1375415 0.07997837 -0.025786517 -0.019713059
0.09696595 -0.11703257 0.021421118 0.07045417 -0.15831853 0.002123103 0.009606742 0.06085426
0.20462729 -0.14551108 -0.014658358 0.04054574 0.13375463 -0.041763768 0.024038034 0.030980691
0.13940474 -0.22645834 -0.0008705888 0.030698374 -0.00027803663 0.31054217 0.03945194 0.022912001
0.005746478 -0.41999787 0.04733329 0.0049368097 -0.1583192 0.21476515 -0.04059078 0.001565832
-0.05060379 0.2163137 0.0009304762 0.034133997 0.16343343 -0.79237723 0.0046287114 -0.08233528
-0.05203474 0.08193353 0.029461335 0.017245395 -0.026598334 0.14944355 -0.0125167575 0.0007761143
-0.09997397 0.0657856 -0.017209364 0.026876487 -0.087123 -0.1549728 0.014256983 0.04112421
0.036531255 -0.07165989 -0.0155510865 -0.0053774505 0.23650795 -0.28934476 -0.006443923 -0.012297376
-0.035279572 -0.1506437 -0.042118616 -0.016307024 0.017491719 -0.012688936 0.0053667547 -0.0036438827
0.03391567 0.04251667 -0.062178522 -0.043776676 -0.049692184 0.2552695 -0.066490285 -0.040277153
-0.015508391 -0.068579696 -0.032054648 0.02167229 0.002969223 -0.21303323 0.03505247 -0.017781049
-0.053080536 -0.092361346 -0.026464658 0.0045512808 0.28766915 -0.22687303 0.017917933 -0.0624037
0.0072699757 -0.08594296 -0.019324465 0.038585756 -0.13681947 0.47928205 0.012945166 0.025547896
0.0041180127 -0.016643547 -0.014753811 -0.02864315 -0.4158104 -0.10775525 0.015200034 0.023578297
-0.00012762067 -0.0018002322 -0.04193658 0.042919263 -0.099209495 0.09631601 0.041570935 -0.054542653
-0.0039091185 0.02331866 0.024334291 -0.054594293 0.5767648 0.08803194 -0.02346764 0.04869373
-0.054202247 0.1579772 -0.044981107 0.13723156 0.12306542 -0.2621915 0.0011584717 0.19776973
0.02173344 0.09168049 -0.043520674 -0.06468872 -0.02545569 -0.26680622 -0.09105142 0.016556228
0.039547425 0.15389264 -0.05223835 0.10353107 -0.13354462 -0.074524984 0.029608509 0.07029527
0.023812514 0.307757 0.06570129 0.06525214 -0.021909827 -0.025566997 -0.026334861 0.04386604
-0.07418264 0.2760396 -0.044476684 -0.027262274 -0.08080883 -0.26709595 -0.04266366 -0.07294896

fc1.bias f4 [256]
00000000: 3ea3 913d 1e24 b6bd 2faa 3b3c 7ab4 c2be
00000010: 7a81 023f cd83 a93d 0930 5dbd 101b 93be
00000020: e2f3 ebbc 185f 90bc 3993 11bf aeb6 2f3a
00000030: 7773 18bf 1b37 2ebf 0877 10be c9e9 e6bd
00000040: 880c b53e 4e6b 27bf d6a5 a6bd b244 cb3d
00000050: 1dda da3d c380 52be 4be4 973d 0deb 9fbe
00000060: f938 27be a20e 0a3f 216c 25bd 1cca e03e
00000070: da6d 83be 5cf5 1abf e55f 17bf 1493 2dbf
00000080: d056 81bd 3ffa 103c 32ff 04bf c31e dcbd
00000090: 8004 1cbf 420e f53b 5e32 f5bd 2afb 14bf
000000a0: 5cfb 26be 2ee0 57bd 6f45 a2be f858 2ebe
000000b0: ba57 77bd 3dc4 e1bc 6162 923c 23fa 913c
000000c0: 6cb6 1b3f a7a1 2abe 051f 97be e6d5 0cbe
000000d0: 1c9d 4ebe 0556 2d3e b2fe 1a3f da55 2a3e
000000e0: 72a4 7dbc 08e0 063e dec7 91be 0d87 1d3e
000000f0: 36f5 16bf e997 143f bf0b 343e 4b4e 35bf
00000100: 2c14 6ebe fa2a 9dbe 05e2 04bf 05ef 01be
00000110: 7ab9 003e c0b8 acbe f33f 9339 6bbd 9fbe
00000120: 5888 ccbe 6f6b 66be fdbe 94be 1a1c 4dbf
00000130: 44b8 a73e d716 dc3c 5c8c 22be cec0 fabc
00000140: 6197 fabe 12ef f43d 4868 0dbf b75a 01be
00000150: 182e ab3d 2419 06be 3e0e fabe 2185 003d
00000160: 248d 943e 3d10 22bd 043a 4a3e 4d01 f23e
00000170: df78 86bf b212 2abe 299f 2a3e 2c3b 48be
00000180: 28ee 23bf 8c21 ba3d 01f8 a73d 7d95 b9be
00000190: f1fa db3d b7d9 3c3e 90f4 cabe 05cf bfbd
000001a0: 6507 6a3e c891 f83e 14d2 bfbd 0117 df3d
000001b0: 868e 33bf e1fa 84be 3bcf 003e 9adb c0be
000001c0: 9dcf 2dbe 1694 e2be 525b 0bbe 7ec4 963e
000001d0: 695b 02bf 67ed 7b3e a31c bd3d 13b1 95be
000001e0: 12ce 253e 1f55 d03e 6f6c 853e 69f9 fc3e
000001f0: daff 8bbd 1b22 10bf 353d d53e a83f e8bd
00000200: 56cd 0ebe d35a e8be d0af 143f 418d 22be
00000210: 1777 9bbd 2d81 1ebe a940 1c3e 7f38 923e
00000220: 1bbb abbe fb4d b5be 9c2f 3e3e a904 203e
00000230: 6ffc a2be f291 c63e 15c2 9d3c 5746 0b3f
00000240: 4513 f83d 3f5f 023e 6d7c 9c3d a085 04bf
00000250: 26d0 52be 02c7 acba deee d73d 5ab6 febd
00000260: d4a8 8f3e a1a5 39be 1a50 a93e dcca 77be
00000270: 860b 043f 2cba e0bd b076 36bf 0477 eb3d
00000280: 17f2 d1bd 9f18 003e 1442 c7be 96e7 5a3d
00000290: 08dc cebe 907f 903d 26bf 12be 303e 383d
000002a0: 63a7 e33e 1326 0fbf 283a 0c3e dbc1 c63e
000002b0: 566c 98be eaf8 9fbe b50b 4cbc f8d6 663d
000002c0: 20a8 b3be 65e0 9cbd 4e32 603d 4ed1 5a3e
000002d0: bcb2 bd3e bde8 bf3d fbe1 8a3e 6b9d 3ebf
000002e0: 6a3c 783e f3af c53e 5c8c 753e ab7d 85bd
000002f0: 81ac cdbe b5ec a03e 3221 db3e 00f8 8b3d
00000300: d55e 253d 6ebb acbd 9283 233f 5fe3 ec3d
00000310: bfee b5be e3c0 07bf c4d4 cbbe 0391 1cbf
00000320: 8cfb 493e ffad dabd 749f 413d 25f9 d23d
00000330: deea 0abf 95c9 6bbe ab39 c6be a435 13be
00000340: c113 e53d 5281 82bd 2e5e 3dbf 9b97 11bc
00000350: 0877 b7be 12d7 1bbf bff8 e0bd 79fc 063f
00000360: bec7 3abe ee3e 5d3e 87b0 6fbe e069 24be
00000370: cd70 773d 4533 00bf b76f a33e af39 673d
00000380: c0ce 883e 504e e5be fcba b43d b730 2cbf
00000390: 8cca 16bf 1749 bb3e 807d a5be 92f7 f83b
000003a0: 3fc3 95be 5e39 ac3d 3fb2 1abe 304a fa3d
000003b0: 8a21 e0be a747 5cbe 5ecd 30be 9884 343e
000003c0: f284 70bd 952e 39be 68f1 30bf 9a12 9dbd
000003d0: 0819 dbbe 24d4 813d 8bc5 0abe 66ff eabc
000003e0: 5c34 7e3e 578b c93e 95cd 02bf dd63 d3be
000003f0: 750a 84be 2395 783e 7cf9 e9bd 8da8 e63d
0.07111214 -0.088936076 0.011454149 -0.38028318 0.50978816 0.08277092 -0.054000888 -0.28731585
-0.028802816 -0.01762347 -0.5686527 0.00067029416 -0.59551185 -0.68052834 -0.14107907 -0.1127506
0.35361123 -0.6539811 -0.081370994 0.09925212 0.10686133 -0.20556931 0.0741659 -0.31234017
-0.16330327 0.5392858 -0.040386323 0.43904197 -0.25669748 -0.6053064 -0.591307 -0.6780255
-0.06315386 0.008848726 -0.519519 -0.10748055 -0.60944366 0.0074785063 -0.119724974 -0.58195746
-0.16306823 -0.05270403 -0.316936 -0.17026126 -0.060386397 -0.027559394 0.017869176 0.01781947
0.6082523 -0.16663228 -0.29515854 -0.13753471 -0.2017712 0.16927345 0.60544884 0.16634312
-0.015481101 0.13171399 -0.284728 0.15383549 -0.5896791 0.58044297 0.17582606 -0.7082259
-0.23249882 -0.3069685 -0.5190738 -0.12688835 0.12570754 -0.33734703 0.0002808567 -0.31199202
-0.39947772 -0.2250192 -0.29051962 -0.80121005 0.3275777 0.02686636 -0.15873855 -0.030609515
-0.48943618 0.119596615 -0.55237246 -0.12632261 0.08358401 -0.13095528 -0.4883899 0.03137696
0.29013932 -0.039566267 0.19748694 0.47266617 -1.0505637 -0.16608694 0.16662277 -0.19553822
-0.6403527 0.0908843 0.082016 -0.36246863 0.10741223 0.18442427 -0.3963971 -0.09365658
0.22854383 0.48548722 -0.09366241 0.108930595 -0.7013935 -0.25972655 0.12579052 -0.37667543
-0.1697373 -0.44253606 -0.13609055 0.29446787 -0.5092073 0.2460228 0.09233978 -0.2923666
0.16191891 0.40689942 0.2605929 0.49409035 -0.06835909 -0.5630204 0.4164826 -0.113402665
-0.13945517 -0.45381793 0.5808077 -0.15874197 -0.07591074 -0.15478964 0.15259041 0.28558728
-0.33541188 -0.35411057 0.18572849 0.15626778 -0.31833217 0.38783222 0.019257585 0.54404205
0.1211305 0.12731646 0.0764092 -0.51766396 -0.20587215 -0.0013181868 0.10543607 -0.124371246
0.28058493 -0.18129589 0.33068925 -0.24198478 0.51580083 -0.109730095 -0.7127485 0.1149731
-0.10251253 0.12509392 -0.389176 0.053443514 -0.40402246 0.070555806 -0.1433073 0.04498118
0.44463643 -0.5591747 0.1369406 0.38819775 -0.29770154 -0.31244594 -0.012453963 0.056357354
-0.35089207 -0.07659987 0.054735474 0.21368906 0.37050426 0.09370563 0.27125534 -0.7445895
0.24241796 0.386108 0.23979324 -0.0651811 -0.40170673 0.31430593 0.42798764 0.068344116
0.040373642 -0.08434187 0.63872635 0.11566805 -0.3553371 -0.53028697 -0.39810765 -0.6115877
0.19724864 -0.10677718 0.047271207 0.10301427 -0.5426463 -0.23026116 -0.38715872 -0.14375931
0.111854084 -0.06372322 -0.7397183 -0.008886243 -0.35833 -0.60875046 -0.109849446 0.5272899
-0.18240258 0.21606037 -0.23407184 -0.16056013 0.06041031 -0.5007823 0.3192117 0.056451496
0.26720238 -0.4478631 0.08824727 -0.6726183 -0.5890281 0.365792 -0.3232231 0.007597872
-0.29250523 0.084093794 -0.15107058 0.122211814 -0.43775588 -0.21511708 -0.17265841 0.17628706
-0.058720537 -0.18084176 -0.69118357 -0.076695636 -0.42792535 0.06339291 -0.13551919 -0.028686237
0.24824661 0.3936412 -0.51094943 -0.41287127 -0.25789228 0.24275641 -0.114245385 0.11262617

fc2.weight f4 [128, 258]
00000000: 4581 bdbd fc0f 6c3c b6da 74bd 543a 433d
00000010: 98f6 363d c98d 213e f7d9 ccbc 6b5e 063c
00000020: ba42 85bd a5e5 2ebd 87d0 4bbc 5fd4 1b3d
00000030: 9e88 81bd 3853 04be 0b08 24bc 6683 5c3d
00000040: ced4 363d 624f 61bd 9416 713c 4e0c 1dbe
00000050: 4a12 f73d eff0 72bd dddb 8dbc 94b3 83bd
00000060: 4e3d 753d 1f11 e7bd 68b1 8ebc 1175 e23c
00000070: c79e f83d 5e0d ab3d 5531 1bbd 157e 36bf
00000080: 1b1e 79bd bdaf 9bbd 4d94 07be 4c96 913d
00000090: 097d f73c cebd 4fbe be9a ccbd 2622 e4bd
000000a0: f86c 1bbe 8a26 9f3d 41a8 d2bd 76ab 353d
000000b0: fa8a d63d b86a e33c 8852 40be 66c0 32bd
000000c0: e82d ff3d 73eb b6bd c0bf 323c 828d 163d
000000d0: f754 723d 9122 26bc e714 033e 5789 2f3d
000000e0: 71b8 8cbc a799 a23d 80a4 11bd 247d 13be
000000f0: c2a4 003d c2b8 cc3c 16db cd3d 25c1 883e
00000100: ebdf ca3d 7b20 bcbd a9cc d9bc 2c42 4b3c
00000110: cb78 05be f93f 713d 48cb 83bd c010 89bc
00000120: 3e7a 313d 9e3d 6cbe 62d3 f6bd 3ca7 22bd
00000130: b0c6 5e3d 1783 793c 95eb c9bd 1658 b13c
00000140: 2a37 6cbd 2882 e33d f628 1dbf af7e ab3b
00000150: 7424 e63c 0684 8e3d 0f3e b13c 2dfa dcbd
00000160: 2b5a 6b3d d6a5 f2bc 4ce8 c93d fb1a 863d
00000170: ee70 373d 3f41 91bd e0e7 403b 70b1 42bd
00000180: 99aa 903d 4a59 803b 2b2b e4bd 3cc3 9fbd
00000190: 467d 133e f62c c0bd 09ba ecbd 3c71 a1bd
000001a0: b722 693d 5072 d0bd 1103 033d 722d 40be
000001b0: 129f cfbd 05f8 3d3c 2c47 86bc ae4b 89bd
000001c0: 152e c93d ad45 8f3d 1608 0d3e c8c3 54bd
000001d0: 0212 46be 9862 083e 01fe 263e cbb8 6d3d
000001e0: 3a44 b23d 6abd 443d 6568 b73d 286e aa3d
000001f0: 79fb 5d3d a62e bbbb 1a01 2fbd bd3d f53c
00000200: 18e5 0ebe f57f 0ebd 3aa4 8f3d eedc 553d
00000210: a380 ca3d 54a4 25bd d690 0bbe d7fb 86b9
00000220: 4323 2bbc 1ae0 6ebc c116 b43d a4c5 36bd
00000230: 6556 98bf bc39 523c b620 b8bc 7fee 9d3d
00000240: 5e40 f83d 8ef7 12bd 707c 213d 9bea 62bd
00000250: fea7 a5bd c44a 123e 2b1a 8dbc 9c9a 15be
00000260: 8fed 923d 0292 d73d 66f9 563d 801e a63c
00000270: 4607 183d 47c1 54bc 7dbf d73c 5a96 893c
00000280: 00bf 4abc 0921 12be ec1a 123e c66d 21be
00000290: d7d8 113c 76a9 64bd 2fe8 75bd 1f92 16bc
000002a0: 1c3c babb fb16 1bbe 81af 5b3d 4d22 a2bd
000002b0: 9a88 8e3c 4df4 143d 6eae 46bc f329 8fbd
000002c0: b96c aa3d e95e 0d3e 4943 efba 4dd6 363d
000002d0: 9195 4a3e 5ae3 a23d b6d2 b2bc d987 47bd
000002e0: 79e9 8d3d dbb6 24be 79f5 0e3d 892c 8cbe
000002f0: 93b9 033e 60ee 5e3d aac9 b6bc 30f4 e93d
00000300: 54f5 8d3d 3e27 653d c8a7 953b fbf6 833d
00000310: 381b 56bd 8ccc ef3c 3bc3 c33d 8399 653d
00000320: a8de d6bd 4515 87bd d08e a03d 8b00 40bd
00000330: c884 2f3d 49d6 8b3d 3139 99bd 64b2 033d
00000340: c855 3e3e bba2 333d 75dd 15bc 77ba d6bc
00000350: e1f0 4d3c d19f 92bc 51fa 593d 0975 85bc
00000360: 96d4 b03d 4c2b 0ebe e7a3 f8bd a248 92bd
00000370: 3ea7 553d 8599 5dbd b813 e33c 832b 683e
00000380: 0cac 26be fd6a 8dbd 0e04 113d 982f 03bb
00000390: c505 d03c 9ac0 04bd f60b 23be c896 86bd
000003a0: 3e1c be3d e0be a1bd ff64 be3d 8fda 3aba
000003b0: f39c b33d 0110 d3bc 0f11 3b3a a9be 973d
000003c0: fd3e 903d ac10 033d bc7a eebd 4246 e73c
000003d0: 9539 043e 02e5 d73d 5cdf 50be c110 27bd
000003e0: cc65 eb3c 63b0 cfbd 8132 7a3d e985 41bc
000003f0: 4c95 bc3b f03b 76bd 2eff b3bd 4b69 dc3c
-0.09253172 0.014408108 -0.05977889 0.047663048 0.044668764 0.15776743 -0.025006277 0.008201222
-0.06506868 -0.042699475 -0.0124398535 0.03804433 -0.06324886 -0.1292237 -0.010011683 0.05383625
0.04463654 -0.055007346 0.014714856 -0.15336725 0.12064035 -0.059311803 -0.017316753 -0.06430736
0.059872918 -0.112825625 -0.017418578 0.027643712 0.121396594 0.08352159 -0.037888844 -0.71286136
-0.060819726 -0.07601879 -0.13240166 0.07108745 0.030210989 -0.20287248 -0.09990452 -0.11139326
-0.15178287 0.077710226 -0.10285998 0.04435297 0.104757264 0.027760848 -0.18781483 -0.043640517
0.12459928 -0.08931627 0.010909975 0.036756046 0.05916306 -0.010140077 0.12800942 0.042855587
-0.017177792 0.07939463 -0.03555727 -0.14403206 0.031407125 0.024990443 0.10051553 0.26709858
0.0990599 -0.09185883 -0.026586847 0.012405913 -0.1303436 0.0588989 -0.06435257 -0.01673162
0.04332947 -0.2307038 -0.12052037 -0.03971027 0.054388702 0.015229008 -0.09859387 0.021648448
-0.057669796 0.1110881 -0.61390626 0.0052336077 0.028093554 0.06958775 0.021636037 -0.10789905
0.057459038 -0.029620092 0.0985876 0.06548115 0.044785433 -0.07092523 0.0029435083 -0.0475325
0.07063789 0.003916894 -0.11141046 -0.0780091 0.14403257 -0.093835756 -0.11558921 -0.07882926
0.056917872 -0.101780534 0.031985346 -0.18767336 -0.10137762 0.011594777 -0.01639136 -0.06703888
0.098232426 0.069957115 0.13772616 -0.051944524 -0.19342807 0.1331886 0.16307832 0.05803756
0.087044194 0.0480322 0.089554586 0.08321792 0.0541949 -0.005712348 -0.04272566 0.029936666
-0.1395458 -0.034789998 0.070137456 0.052212648 0.09887817 -0.04043992 -0.1362947 -0.00025746107
-0.010445419 -0.014579797 0.087934025 -0.04462208 -1.1901366 0.012831148 -0.022476535 0.07711505
0.12121652 -0.035880618 0.039425313 -0.05539952 -0.080886826 0.14286333 -0.017224392 -0.1460976
0.07174217 0.10525896 0.05248394 0.020278215 0.03711631 -0.012985534 0.026336426 0.016795326
-0.0123746395 -0.14270414 0.14268082 -0.15764531 0.008901796 -0.055825673 -0.06003588 -0.009190111
-0.005683435 -0.15145485 0.05363417 -0.079166986 0.017399121 0.036365796 -0.012126548 -0.06990423
0.083215185 0.13805737 -0.0018254305 0.044637967 0.19783618 0.0795352 -0.02182899 -0.04871354
0.06929297 -0.16085379 0.03490207 -0.27377728 0.1286376 0.05442655 -0.022312958 0.11423528
0.06931558 0.055945627 0.00456712 0.06443592 -0.05227205 0.02927234 0.09558722 0.056054603
-0.10491687 -0.06595854 0.07839739 -0.046875518 0.04285124 0.06827981 -0.074816115 0.03215255
0.1858741 0.043856364 -0.009147038 -0.02621196 0.012569637 -0.017898472 0.053217236 -0.016291158
0.086342975 -0.13883704 -0.12140637 -0.0714276 0.052161448 -0.054101486 0.027719364 0.22672848
-0.16276568 -0.06905172 0.035404257 -0.0020017382 0.025393376 -0.03241024 -0.15922531 -0.06571728
0.092827305 -0.07897735 0.09296607 -0.00071279047 0.0877017 -0.025764467 0.0007136026 0.074094124
0.07043264 0.03199832 -0.116445035 0.028231744 0.12912591 0.10541727 -0.20397705 -0.040787462
0.028735064 -0.10141065 0.06108332 -0.011811712 0.0057551023 -0.060115755 -0.08788906 0.026905676

fc2.bias f4 [128]
00000000: 92be 9d3e f618 043e 325a 6e3e 6890 043e
00000010: cd94 9a3d 1118 40be ee1c 213e 9119 9bbe
00000020: e949 ddbe 790e 173d 1792 44be 9b0a bf3e
00000030: 5bd0 02be 656c 473c 5a42 d23d e747 2e3e
00000040: ac97 053e eff4 82be 1257 a1be 6c74 843d
00000050: 1e19 04be 0b62 833c 40cd bf37 a474 853d
00000060: 2de9 1d3e 818a 25bd 59d3 4fbe e161 49bd
00000070: 47b0 a23d 0619 9d3e 945c 4c3d 0756 803e
00000080: c413 04bd bea9 bb3e 6846 893e 89d1 973e
00000090: f9b4 75ba 34fe 05be f9e9 bcbb 8b23 b73e
000000a0: 7191 723e 6d6a e83c d9a8 933e e6a0 853c
000000b0: c29c 6dbe a954 493e 7899 9abe 577d c3be
000000c0: 1cd5 e5bd 40f5 ce3e 12d5 9abe b401 1c3e
000000d0: def3 003e 8ed2 f83d 7689 63be f5b5 1abd
000000e0: e4b8 d8bd 19b3 75bb 36fa 973e c248 bf3d
000000f0: 01b5 0cbe d5cd 8b3e ef45 9d3e 68d8 b33e
00000100: 8b9d 9d3e 7d1f 4a3e d74b 673e 5a12 923d
00000110: a406 45be 45a1 933e 6f1a b2be aa33 313e
00000120: 50cd 9f3e 933e 343e 758f dd3c 20f7 b13e
00000130: 4ed5 73bd d753 61be ade8 a4be dc61 383e
00000140: 37da 093d 3dae 043d 9cb8 a5bd 2814 49bd
00000150: 3627 0a3e 5825 9c3e d291 693e d86b 5abe
00000160: 7a20 983e 9224 823e 6717 60bd 9380 9dbe
00000170: 2344 7f3d 3d5c bcbd 6562 d93c 8712 ebbe
00000180: ba03 56bd 7653 203e 6c48 4d3e cdcd fc3b
00000190: 0960 b2bd 56db a9be 8804 413e 752f 583e
000001a0: 440e 9dbe f467 a73e 7268 c93e d5fc d3be
000001b0: b0b1 1b3d 318e 673e f996 023e 08c8 5c3d
000001c0: 989d 4dbe d399 eabe ade6 12bb 8a83 8dbe
000001d0: fe82 5ebe 066e 61be 6253 58bd 2574 cdbd
000001e0: 5971 38be 925b d63d 688e 743d 967b 5abd
000001f0: cc38 773e bcfb 343e aaea b6be f9a6 74bd
0.30809456 0.12900147 0.23276594 0.12945712 0.07547913 -0.1875918 0.15733692 -0.30292943
-0.4322045 0.036879037 -0.19196354 0.3731278 -0.12774794 0.012171839 0.10266562 0.17019616
0.1304614 -0.25577495 -0.31511742 0.06467518 -0.12900206 0.016037961 2.2864551e-05 0.06516388
0.15420981 -0.04041529 -0.20295466 -0.04916561 0.079437785 0.30683154 0.049892977 0.25065634
-0.032245412 0.3665294 0.26811528 0.2965205 -0.00093729753 -0.13085252 -0.0057651964 0.35769305
0.23688294 0.02837106 0.28839758 0.016312074 -0.2320433 0.19661202 -0.30195212 -0.38181564
-0.11222288 0.40421486 -0.30240685 0.15235025 0.12593028 0.12149535 -0.22220406 -0.037771184
-0.1058214 -0.0037490784 0.29683083 0.09340049 -0.13740923 0.27305475 0.30717418 0.35126042
0.30784258 0.19738574 0.22587524 0.071324065 -0.19240814 0.28833976 -0.34785792 0.17304865
0.31211329 0.17601995 0.027045945 0.34758854 -0.059529595 -0.22004639 -0.32208768 0.1800608
0.03365537 0.03239273 -0.08091852 -0.049091488 0.1349152 0.3049724 0.22809532 -0.21330202
0.29712278 0.25418526 -0.05470982 -0.30762157 0.06232084 -0.091972806 0.026536176 -0.45912573
-0.052249648 0.15656838 0.20047158 0.007714963 -0.087097235 -0.33175153 0.18849385 0.21111853
-0.30674946 0.32696497 0.39337498 -0.41403833 0.038011253 0.22612835 0.12752904 0.053901702
-0.20079648 -0.45820484 -0.0022415326 -0.2763942 -0.21729657 -0.22014627 -0.052813895 -0.100319184
-0.18011989 0.104666844 0.05970612 -0.053340517 0.2414276 0.17674154 -0.3572591 -0.05972955

fc3.weight f4 [1, 128]
00000000: 54af 393d ccea 183d 1dbd 263d 5352 b53d
00000010: 9b79 12be 60b1 943e 92b5 243d 277b 58be
00000020: 8a90 6bbe e161 e23c e047 abbd 5775 0d3d
00000030: ab18 18bd ed87 f63d 4e34 253d dbb8 073d
00000040: ac63 31be e248 4ebe 9723 febc 7c77 d23e
00000050: 169c d4bd bdcb 66bd 05e7 003f 2e8a 9b3e
00000060: 1b94 2f3e 493b b1be 4c37 33bd b1c3 80bd
00000070: a5f3 053e 4620 cc3c 8493 9e3d 9ef8 c43c
00000080: 74c3 093f 1916 dc3c 30b5 e13c 4f63 023e
00000090: 5fb8 913e 7f90 03be e36b a23d 56bb a63d
000000a0: c6c1 a23d 07aa b53e c2b2 183d 529a 3f3e
000000b0: 7b76 23bf 52fb 193d 047d 84be a4fb 9dbe
000000c0: 4dc9 c4bd 1f17 363d ddd7 42bd ff0e 8b3d
000000d0: d124 f2bd 0f3b 193e d242 b3bd c6e1 59be
000000e0: d0c1 21be 7020 a83d 5013 fa3c 2809 023e
000000f0: 2c2f f2be 6b72 da3c 3da2 df3c 8c3f ce3c
00000100: f85e 093d fa08 023d 91e3 d0be 750c 023e
00000110: 36fb 67be bb82 173d 7270 e2bd 0f6a 3a3d
00000120: 22c4 0a3d c289 143d 2291 4a3e bdcd f73c
00000130: 7336 b13e 39f1 78be 1c5e e6be 9af6 8b3d
00000140: 7334 433d 2fcc 2cbc 10db 813e f0c4 99bd
00000150: 64da d03d 3c5a 023d e6f8 b53c 2656 50bd
00000160: 5b0f 3c3d 8071 e33c 0ed1 3bbd 7236 a2bd
00000170: aff2 903e 83cf 613e 39db 953b a0a8 a3be
00000180: 6c48 85be 9cc7 fc3c ca55 f03c a633 893e
00000190: fe62 073f ce5d 24be 97da 3d3d 73e2 3e3d
000001a0: 54ee 30bd f425 af3c 4c41 013d a50a 8bbe
000001b0: dcad 833d 12e2 813d fce7 423d 82e8 d5bd
000001c0: ccf5 1abd ee1b 7dbd 7c5e a53d fae3 1d3e
000001d0: 190c 31bd 4f02 71bd e119 52bd 3734 72bd
000001e0: fb79 9dbe ac0d fd3c 909f 733d b491 0fbd
000001f0: 9f72 643d 5006 ac3e b5dc 5dbd 80bf 10bf
0.04533322 0.037333295 0.040707696 0.08853593 -0.14304201 0.29041576 0.04021222 -0.21140729
-0.23004356 0.027634563 -0.083633184 0.034535732 -0.0371329 0.120376445 0.040333085 0.033135276
-0.17323178 -0.2014499 -0.03102283 0.41106784 -0.103813335 -0.056346644 0.5035251 0.3037886
0.17146342 -0.34615543 -0.043753907 -0.06287325 0.13081224 0.024917733 0.0774298 0.024044331
0.5381386 0.026866006 0.027552217 0.12733196 0.28460976 -0.1284809 0.07930734 0.081412
0.079471156 0.35481283 0.03727985 0.18711212 -0.6385266 0.037593193 -0.2587663 -0.3085605
-0.096087076 0.044455644 -0.047569145 0.0678997 -0.118234284 0.14963935 -0.08752979 -0.21277532
-0.1579659 0.08209312 0.030526787 0.12698805 -0.47301614 0.026665887 0.02729904 0.025176786
0.033537835 0.031746842 -0.4079862 0.12700064 -0.22654423 0.03698991 -0.110566035 0.0455113
0.033878453 0.03626419 0.19781926 0.03024947 0.34611854 -0.24310769 -0.44993675 0.06834145
0.04765744 -0.010546728 0.25362444 -0.07508266 0.10197905 0.031824335 0.02221341 -0.050863408
0.04591308 0.027764082 -0.045853667 -0.07920541 0.28310153 0.22051816 0.0045732525 -0.31964588
-0.26031816 0.0308569 0.029337782 0.26797217 0.52885425 -0.16051409 0.04635104 0.046602678
-0.043196037 0.021380402 0.031556413 -0.2715656 0.064296454 0.063419476 0.04758452 -0.10444738
-0.037832066 -0.061794214 0.08074662 0.15418997 -0.043224428 -0.058840092 -0.05129421 -0.059131827
-0.30757126 0.030890308 0.059478343 -0.035051063 0.055773374 0.33598566 -0.05416556 -0.56542206
